data.pth (torch, 11178 bytes, 6 tensors)

l1.weight f4 [8, 163]
000000 f0 c5 31 bf f8 a9 68 be 16 60 09 3f da 51 d0 3e
       -0.69442654 -0.22721088 0.5366224 0.40687448
000010 07 3c 41 bf 2c 5e 07 3f 74 a7 58 3f 33 3c f3 3e
       -0.7548222 0.5287807 0.84630513 0.47506866
000020 81 c4 d9 3e f3 70 c3 3e c4 60 5d 3e 8e 6a 4d 3d
       0.42532733 0.3817211 0.21618944 0.050150447
000030 35 c5 99 3e c6 2e 0f bf 5b 42 b4 be 91 7e 4a 3f
       0.3003327 -0.55930746 -0.35206875 0.79099375
000040 cf 0e 9a bf 12 41 3d 3f 0a 4e ac bd 25 30 80 3e
       -1.2035769 0.73927414 -0.08413322 0.2503673
000050 29 56 77 bf b7 61 b7 bf da 71 c2 be 16 26 01 be
       -0.96615845 -1.4326695 -0.37977487 -0.12612185
000060 b6 24 cc 3e fd c0 e7 3e c0 66 16 3f 5d 0f 02 bf
       0.39871758 0.45264426 0.58750534 -0.5080469
000070 a4 b8 b7 3d a8 df ed be c6 b1 4a bd 01 fe d0 be
       0.08970764 -0.464597 -0.049485944 -0.4081879
000080 b1 3a b1 be 62 d8 79 be 1a 22 0f bf c6 69 da be
       -0.3461509 -0.2439895 -0.5591141 -0.42658824
000090 9f c3 ce be 6e c4 d5 be 26 f2 a6 be e5 e3 9e be
       -0.40383622 -0.41751426 -0.3260662 -0.31033245
0000a0 92 fd c1 be 73 d1 36 3f 20 80 25 3f f3 13 bb 3c
       -0.3788877 0.71413344 0.6464863 0.022836661
0000b0 80 2c c2 bb 8a e6 ec be 24 84 26 3f 07 5c 8d 3e
       -0.005925715 -0.46269637 0.6504538 0.27609274
0000c0 7e a3 93 bc 1d 36 ac bd 2b e3 22 3f de 23 2c bf
       -0.018022295 -0.08408759 0.6362788 -0.6724223
0000d0 a8 f8 ff 3e 84 e0 39 3f 2d c6 e7 3e 7b 69 dc be
       0.49994397 0.7260821 0.45268384 -0.43049225
0000e0 93 31 55 3f 90 ab e9 3e 74 2a c3 be ee 5e 3b 3e
       0.8327877 0.45638704 -0.38118327 0.18297932
0000f0 55 40 0f bf 8e 71 08 3f 0c c7 1f bf 25 5a f1 3e
       -0.5595754 0.5329827 -0.62413096 0.47139087
000100 43 d8 8c 3e 8f 36 29 3e 63 9c f0 3e 0b 40 1a 3f
       0.27508745 0.16524719 0.46994314 0.6025397
000110 84 80 22 3f 0f cb c3 3e 00 90 de 3e af d8 cd 3e
       0.6347735 0.3824086 0.43469238 0.4020438
000120 fc ed 07 bd 88 8b bd 3e 95 56 c4 3d 68 10 22 bf
       -0.033185944 0.37020516 0.09586827 -0.63306284
000130 b2 b3 19 3f a8 97 d6 3e 89 58 36 3f 47 ac a9 3e
       0.6003982 0.4191258 0.71228844 0.3313925
000140 b0 23 23 bf 21 2f 22 3e 7e eb 4a bf 87 11 8d be
       -0.6372633 0.15838291 -0.7926558 -0.27552435
000150 4e 65 c6 3e 94 e9 c5 be f8 aa 9f 3c 01 ef 56 bb
       0.38749164 -0.38654768 0.019490704 -0.0032796266
000160 f9 28 bd be 64 dc 00 3f b9 9f a2 3e f5 de 05 bf
       -0.36945322 0.5033629 0.31762484 -0.5229333
000170 f3 5a aa 3e ef 39 41 be 0f f4 0d bf 57 45 8f 3e
       0.33272514 -0.18869756 -0.5545053 0.2798259
000180 68 6f 12 bf ae 5c d3 3e ab e6 7f bd 68 80 bb 3e
       -0.5720124 0.41281646 -0.06247584 0.36621404
000190 a8 4e 63 bf fd 2f 32 3f cb a3 2a 3f 31 08 03 3f
       -0.88791895 0.69604474 0.6665618 0.51184374
0001a0 78 9f 41 3f 2e c7 97 3e 83 75 64 3e b0 dd 2e 3e
       0.75633955 0.2964415 0.22310452 0.17076755
0001b0 9f f2 83 bf e2 1e ac 3f 84 67 83 bd 4a 03 39 3f
       -1.0308417 1.3446925 -0.064162284 0.72270644
0001c0 63 2b 28 3a cd d2 e3 3d b2 27 86 3e d2 f4 03 bf
       0.00064151565 0.111241914 0.2620216 -0.5154544
0001d0 54 95 f6 be 4a 47 87 3f c3 21 20 be 66 c1 8e 3e
       -0.48160803 1.0568631 -0.15637879 0.27881926
0001e0 76 d9 d6 be 9c 94 0d 3f 58 4d 53 3f db 90 0d 3f
       -0.41962785 0.55304885 0.8253989 0.55299157
0001f0 cc 69 d9 be 4e 37 0f bf 5b 8e 54 bf 6c 85 9e be
       -0.4246353 -0.55943763 -0.8302972 -0.30961168
000200 50 39 3d 3f 8d 20 06 3f 39 b7 fc be d9 7f d2 be
       0.73915577 0.5239342 -0.49358538 -0.41113165
000210 af b2 6e be fd b7 37 bf f7 b6 34 3f e4 a9 30 3f
       -0.2331035 -0.7176512 0.7059168 0.6900923
000220 83 d5 3a 3f 4f 28 f5 3e 28 b8 86 3e f4 16 ae 3e
       0.72982043 0.47882316 0.26312375 0.34001887
000230 95 23 9f 3f f7 90 f7 3e c0 49 af 3e 2e 9c fa bd
       1.2432734 0.48352787 0.34235954 -0.1223682
000240 fc fc 53 3d fd df 8c bd d1 a5 01 bf 8d 14 d7 3d
       0.051754937 -0.0687866 -0.5064364 0.105019666
000250 ff d0 a0 3e 86 8a 80 be 4d df 15 3e b8 df be be
       0.3140945 -0.25105685 0.14635964 -0.3728006
000260 3a 89 90 3e 72 ac c2 3e 66 ff c5 be fd d8 36 3f
       0.28229696 0.3802219 -0.38671416 0.7142485
000270 93 76 4f be 45 e8 ba bc 32 21 5f 3f 88 39 7b be
       -0.20260076 -0.022815833 0.8716003 -0.24533665
000280 4d 59 dc 3e de 16 47 3e f3 0c 17 bf 8d 9e 1c 3f
       0.4303688 0.19442317 -0.59004134 0.6117943
000290 ca 9a 94 3e 9b bf 0b bf f6 fd 01 3f 8e ea 3b be
       0.29024345 -0.5458924 0.5077814 -0.18351194
0002a0 28 ff 2c bf 9e 4c 7d bf 68 3a 4f bf 74 87 ef be
       -0.6757684 -0.98945034 -0.80948496 -0.4678303
0002b0 d8 5b b0 be 43 9d c1 bc 69 2b 5d 3e ad d4 51 3e
       -0.3444507 -0.023634559 0.21598591 0.20491286
0002c0 2c d5 31 3e 44 c2 b7 be 8a 04 2e 3e 46 b9 c2 3f
       0.17366475 -0.358904 0.16993919 1.5212791
0002d0 9d cb 06 3e 20 26 8a be 59 3d f0 3e 09 66 c4 be
       0.1316361 -0.26982212 0.46921805 -0.38359097
0002e0 71 58 98 3f ad a0 ba bd 5f d9 31 bd e4 6b a3 be
       1.190199 -0.09112678 -0.04342019 -0.31918252
0002f0 b9 99 c6 3e b4 cb 3c bd 97 82 e2 3e 69 39 83 3f
       0.38789156 -0.046092704 0.44240257 1.0251895
000300 90 1c a9 3d c4 73 95 3e ef 17 8b 3f 6e 49 d4 3e
       0.08257401 0.29189885 1.0866679 0.41462272
000310 5e c9 4b 3f 90 31 81 3f db f9 0b be 04 0b 90 3e
       0.79604137 1.009325 -0.13669531 0.28133404
000320 26 68 1d 3e eb 19 3c 3f ae af 21 3f 4a 03 27 3f
       0.1537176 0.7347705 0.6315869 0.65239394
000330 00 cc 60 3e 3c 6d db 3e c2 d4 b0 3e 4e fb 80 3f
       0.2195282 0.42856777 0.3453732 1.0076692
000340 4c 06 ed 3d 1e f7 62 bf bb 91 ec bc c4 0e ac 3e
       0.11573467 -0.8865832 -0.028878083 0.33605015
000350 bb 16 17 3f 9d 72 08 3e 72 56 40 3f bb 59 f9 bb
       0.5901906 0.13324971 0.75131905 -0.0076095737
000360 bf 5c 4c 3e a7 2c 29 bf 23 18 c4 3e f1 b9 79 3e
       0.19957255 -0.6608376 0.38299665 0.24387337
000370 d3 07 6a 3d a3 7d 66 3e 2b fb ae 3d 3e 58 8f 3f
       0.057136368 0.22508864 0.08544 1.1198804
000380 fd 17 20 3e 6f 07 14 3f cd f8 83 bd 2c 8b 3d be
       0.15634151 0.5782384 -0.06443939 -0.18510121
000390 5c 19 e0 3e e8 78 52 bd 1f 80 4e 3f 48 90 7d 3e
       0.43769348 -0.051384836 0.8066425 0.2476207
0003a0 2c 61 68 3f 81 f4 23 bd 9c ba be 3c 1e 6c b5 bd
       0.9077327 -0.0400281 0.023282342 -0.08858512
0003b0 3e 59 25 bd ec 4e 2e 3f 19 a6 16 3f 9c 22 34 bf
       -0.04036831 0.68089175 0.58847195 -0.7036531
0003c0 13 e8 8e 3d 7f 3f 2f bf ed f9 06 3f 8f bb c6 3e
       0.069778584 -0.6845626 0.52725106 0.3881497
0003d0 33 48 51 3f 7c 0a 01 3e 85 a5 3a 3c d3 e5 85 3e
       0.8175079 0.12601656 0.011392002 0.26151904
0003e0 f7 bc 2f 3f 8e 79 3c 3f cf 96 4c 3e ad 76 d8 be
       0.6864771 0.7362298 0.19979404 -0.42278042
0003f0 06 6d 39 3f cc f8 fc bd 9e b7 03 3e 37 c7 35 3f
       0.7243198 -0.12352142 0.12863013 0.710071

l1.bias f4 [8]
000000 05 30 0f 3f 5a 7b cd 3f af 32 b5 3f 49 f5 8b 3f
       0.55932647 1.6053269 1.4156092 1.093423
000010 1e 1a 20 3f 2b 59 49 3f fd 66 b5 3f c6 7f 38 3f
       0.6253985 0.78651685 1.4172055 0.72069967

l2.weight f4 [8, 8]
000000 7f 60 ff bf 87 0b 0d 40 4a c2 6d bf 02 5d c9 3f
       -1.9951323 2.2038286 -0.92874587 1.5731509
000010 40 7c bc 3f e5 94 c8 bf 12 fc d3 3f 8d 96 8b be
       1.4725418 -1.5670439 1.6561301 -0.272633
000020 b2 da d1 3d d5 f9 f6 3e c8 74 5c bf 89 97 b5 3f
       0.10246791 0.48237482 -0.86115694 1.418687
000030 7b 6e 18 40 f6 44 92 3f ba 42 09 bf 2e 5b b9 3f
       2.3817432 1.1427295 -0.5361744 1.4480951
000040 f7 cd c9 bf 56 02 a5 3f 16 10 04 40 ae 94 4a 3f
       -1.576598 1.2891338 2.0634818 0.7913312
000050 8a af 59 3e 16 11 89 bf 6b ce 45 40 22 ae 8b bf
       0.21258369 -1.0708339 3.0907238 -1.0912516
000060 a7 40 7f 3f d3 55 a4 be 32 a4 d3 3f e6 33 43 3f
       0.99708027 -0.3209673 1.6534483 0.76251066
000070 ca db de 3f a9 96 03 40 2d 42 8b 3f 54 1f a7 bf
       1.7410824 2.0560706 1.087957 -1.3056436
000080 13 0a f2 3f a0 bb 34 3f e5 da 0f 40 ac ee 80 bf
       1.8909324 0.70598793 2.2477353 -1.0072837
000090 c5 08 8c 3e d9 9d 1b 40 e7 18 0a bf b8 94 ea 3c
       0.2735044 2.4315093 -0.5394425 0.028635368
0000a0 5e 85 d4 3f 0f a9 99 3f c3 7c 82 be f9 52 1f 40
       1.66032 1.2004718 -0.2548581 2.4894392
0000b0 a0 5c 65 3e 9d 4d ec bf a1 ad 24 bf 7e 26 0d 40
       0.22398615 -1.8461186 -0.64327437 2.2054744
0000c0 74 f0 c5 be c7 77 e9 3f 61 ff 37 bc 46 39 a7 bf
       -0.38660014 1.8239678 -0.011230321 -1.3064353
0000d0 1b 95 34 3f b1 d7 f8 3e 0e 1c 8d bf 29 8e a1 3f
       0.70540017 0.4860206 -1.1024187 1.2621509
0000e0 4b e9 4d bf 0c 3b bb 3f 3c b9 0c 3f 34 1a da be
       -0.804341 1.4627395 0.54970145 -0.42598116
0000f0 e0 20 1f c0 55 91 25 3f c5 f5 48 3f ee d7 f2 3f
       -2.4863815 0.64674884 0.78500015 1.8972147

l2.bias f4 [8]
000000 64 95 06 3f c1 56 17 bf 8c 75 91 3f 34 1d ba bd
       0.525717 -0.5911675 1.1363997 -0.09087601
000010 b2 12 6d 3e 6a 10 a2 3d 1a d7 ba 3e e0 a1 61 3f
       0.23151663 0.07913287 0.36492234 0.88137627

l3.weight f4 [24, 8]
000000 a1 ae d8 3e 33 4a c1 be 33 bb 26 3e f3 c7 09 c0
       0.4232073 -0.37751922 0.16282348 -2.152829
000010 59 06 1b c0 a1 e9 8b 3e 01 dc 97 3e 8f 6a 01 3f
       -2.4222624 0.27326682 0.29660037 0.5055322
000020 b9 ee 9a 3e a0 f1 e3 3e 40 ba dd bf bf 63 53 bf
       0.30260256 0.44520283 -1.7322464 -0.82574075
000030 11 f9 69 bf 99 d8 d9 3c c4 95 09 3f 0d e1 72 3e
       -0.9139567 0.02659254 0.5374415 0.23718663
000040 7f bf d7 bf a4 4a 14 3e bd 69 a7 be 4a 74 b7 3e
       -1.6855315 0.14481598 -0.3269786 0.3583091
000050 d0 14 cc 3e 7e 12 df bf 9b 64 87 3e 95 d4 02 c0
       0.3985963 -1.7427518 0.26443943 -2.044225
000060 3b cc 8c 3e 91 41 4b bf 8b 52 94 3e eb af 1b 3d
       0.27499565 -0.7939692 0.28969225 0.038009565
000070 97 a5 d1 be 53 01 92 bf 57 13 95 bf 5f ce 11 3f
       -0.40946648 -1.1406654 -1.1646527 0.5695552
000080 7f 94 be bd f5 4b e1 bf 9f dc ac 3e 6c 75 e4 bf
       -0.09305667 -1.7601305 0.3376207 -1.7848334
000090 80 19 9c be 68 ad b7 be 41 b6 81 3f 6b ed 46 3f
       -0.30488205 -0.35874486 1.0133744 0.7770602
0000a0 ad d8 26 c0 db 5b 53 bf e4 5d b7 3d b6 d4 c9 be
       -2.6069748 -0.82562035 0.08953455 -0.39420098
0000b0 ee fe 77 3e b1 0a bd be 89 63 00 be 96 01 8d 3f
       0.24218342 -0.3692222 -0.1253797 1.1016109
0000c0 7f b9 83 be 46 e1 15 3e 02 74 28 bf ec 0b 5a 3e
       -0.2572746 0.14636716 -0.65802014 0.2129361
0000d0 f8 24 94 be d1 43 d7 3e 48 89 14 c0 7a 71 f7 bf
       -0.28934455 0.42043927 -2.320879 -1.9331505
0000e0 88 d5 07 c0 79 1f db 3e 3a 6a 10 c0 af 14 b9 3e
       -2.122408 0.4279745 -2.2564836 0.36148593
0000f0 a4 fc 83 3e 58 9d 09 be 8f e5 ee be 76 ef 89 bf
       0.25778687 -0.13438928 -0.46659514 -1.0776203
000100 94 51 b0 3e 07 9b 41 be f5 c9 39 be d8 40 1b bf
       0.3443724 -0.18906794 -0.18143447 -0.6064582
000110 3a fd 21 bf 36 09 cb 3d 5b d0 2e be 64 83 49 3d
       -0.6327702 0.09913866 -0.17071669 0.04919757
000120 81 12 80 3f b2 f6 fc bd e1 3f a4 3e e2 81 3c be
       1.0005647 -0.12351741 0.32079986 -0.18408921
000130 c9 20 09 c0 7a b5 5a 3e 8f 23 d9 bf a2 fc 83 bf
       -2.142626 0.2135829 -1.6963977 -1.0311472
000140 5b 5f 7e 3f 71 c6 82 be 1c f0 22 3f 8c c0 3c 3e
       0.9936425 -0.25542024 0.6364763 0.18432826
000150 28 3e 04 bf 82 5c 57 c0 c9 ae 29 bf 6b 47 8f bf
       -0.5165734 -3.3650212 -0.66282326 -1.119367
000160 73 0f ec 3e 40 cc f4 3e 7f 46 87 bf 7e aa 01 bf
       0.46105537 0.4781208 -1.0568389 -0.50650775
000170 16 10 06 c0 6d 6c e5 3e ff 9c 67 be f2 36 c1 bf
       -2.0947318 0.44809285 -0.22618483 -1.5094893
000180 8b 44 35 b8 3a 7e f1 3e 19 50 24 c0 e3 73 a0 be
       -4.32176e-05 0.47166616 -2.5673888 -0.31338415
000190 d6 22 b3 be f2 25 d1 3e 49 5f c4 be f3 0f d6 bf
       -0.34987515 0.40849262 -0.38353947 -1.6723617
0001a0 f0 23 6f 3f 8f 00 d3 bf bc f9 6a 3f 63 eb 69 bf
       0.9341421 -1.6484545 0.91787314 -0.91374797
0001b0 41 b4 1e c0 b7 aa 72 bf 87 e1 ec bf 8a 73 4a 3f
       -2.4797518 -0.9479174 -1.8506325 0.7908255
0001c0 56 63 9e bf e9 3f 80 3e 8e bf 0f c0 95 08 8f bf
       -1.2374065 0.2504876 -2.2460666 -1.1174494
0001d0 f5 81 df 3e f3 9e 0e bf fa f6 ac 3f 76 0e 32 3f
       0.43653837 -0.5571129 1.3512871 0.69553316
0001e0 c1 65 36 bf 4c 82 fe bf 9c f4 dc 3d f3 13 e6 bd
       -0.71249014 -1.9883513 0.10788843 -0.11234274
0001f0 49 01 ba 3e d6 ff 45 3f 2d df 34 c0 47 bc d9 be
       0.36329105 0.773435 -2.8261216 -0.42526457
000200 b3 c2 b1 bf fc 47 a0 bf db 4c 2f bf ea ab f7 3e
       -1.3887542 -1.2521968 -0.6847665 0.48373348
000210 9d 6e 4e 3f 5f ce f2 bf 9f bf b2 bf 27 d1 82 be
       0.8063753 -1.896923 -1.3964728 -0.25550196
000220 1a 68 ed bf c1 9e 07 c0 bd 59 45 3f cc 3f af 3e
       -1.8547394 -2.1190646 0.77090055 0.3422836
000230 69 46 2b 3e 5a 0e 1b c0 e5 ad 19 c0 b1 09 29 3f
       0.16726078 -2.422751 -2.4012387 0.6603041
000240 9d 7a dc bb 7c 3b 2d c0 7f ac d2 3e a8 c3 82 be
       -0.006728484 -2.7067556 0.4114723 -0.255399
000250 af d1 0d 3e 39 6a 31 c0 26 9e 62 3f 94 8d b4 3e
       0.13849519 -2.7721083 0.88522565 0.35264266
000260 e7 35 a2 3e 74 f7 aa 3e c1 d6 ae bf 28 3a 2c c0
       0.3168175 0.33391917 -1.3659288 -2.6910496
000270 62 3a 14 c0 95 9a 29 3f 82 6b 3e 3e 51 a8 81 3e
       -2.3160634 0.662515 0.18595698 0.25323728
000280 d7 1c 94 3e d5 27 a7 be 2e 45 ed 3e 3c 52 25 3e
       0.28928253 -0.32647577 0.46341842 0.16144651
000290 ad a5 b1 bd 00 5d 09 bf ff 1c 01 c0 5b cf ed bf
       -0.08674178 -0.5365753 -2.0173948 -1.8578905
0002a0 61 d8 dc be 08 24 a9 3e c5 a3 2a bf 85 f8 cd be
       -0.43133834 0.33035302 -0.6665614 -0.40228668
0002b0 43 7f 95 3e a3 f2 e8 be 0d c9 90 3e f9 24 0e bf
       0.29198655 -0.45497617 0.2827839 -0.55525166
0002c0 92 03 6f bf 9f b5 08 bd 95 ad 9b bf 63 e9 76 bf
       -0.9336482 -0.033376332 -1.2162348 -0.9644987
0002d0 97 fa 7f be d1 ea 3b 3f cc 98 86 bf 52 0b 1f 3f
       -0.24997936 0.73405176 -1.051538 0.6212665
0002e0 bb cc 7a bf 68 85 4a 3c 7e 54 0d 3f 2d 93 67 3f
       -0.97968644 0.012360908 0.5520705 0.9045895
0002f0 c0 98 52 3d 7f e9 3a c0 c3 39 27 c0 2f 5b f5 bf
       0.051415205 -2.9205015 -2.6129005 -1.9168452

l3.bias f4 [24]
000000 fc 76 5a be 9e e7 80 bd 92 2a 1e be 54 c9 8e be
       -0.21334451 -0.062941775 -0.15445927 -0.27887976
000010 53 b6 6b be f2 94 2d 3f df 33 94 bd 0a 70 8e 3e
       -0.2301877 0.678054 -0.07236456 0.27819854
000020 fc 71 0f bf 91 99 9f bd 95 3a 01 3f 83 a0 4c be
       -0.560333 -0.07792962 0.50480014 -0.19983105
000030 d6 f8 bc be c7 2e 3f 3f cc 09 e8 3e 02 ea 73 3e
       -0.36908597 0.7468075 0.45319974 0.23819736
000040 2f cc 7f 3e 7c de 99 be f5 a4 98 be bd 9d 8b bd
       0.24980234 -0.30052555 -0.29813352 -0.068171956
000050 e9 2c fa be f4 a5 e3 ba cb 75 b2 bc 02 ed ef 3c
       -0.4886239 -0.0017368183 -0.021784684 0.029287819
